modality_pretraining/str/GIN_256x4_muv.pt (torch, 822809 bytes, 48 tensors)

layers.0.batch_norm.weight f4 [128]
0.99387294 0.98580563 0.9963776 1.0157561 0.98723966 0.99894375 0.9865122 0.9987427
1.0209879 0.98793536 0.99748087 0.99726677 0.98524535 1.0119007 1.0050697 0.99251294
1.0058112 1.0076144 1.014603 1.0135521 0.9988122 1.0020015 1.0035853 1.0437174
1.0117264 1.0032523 0.9890386 0.9773459 0.99985564 1.0090151 1.0216635 0.9847891
0.99719703 0.99282956 1.0027609 1.000548 1.0104707 0.9943616 1.0035844 0.99852425
1.0178634 0.99280566 0.996655 1.0340484 0.9993025 0.9912858 0.99291813 1.0062326
0.9819928 1.0081688 1.0144635 1.0069379 0.97817034 0.98730075 0.9735135 0.99264354
0.9778077 0.98958313 1.0055447 1.010073 1.0145508 1.0057824 1.0015174 0.9807649
0.99413484 0.99937475 0.984627 1.0102623 0.99878085 1.0065207 1.0076716 0.98368114
0.9869774 1.0062222 0.99435043 0.9732075 0.9888885 1.0058907 0.99142486 1.028859
0.99902844 0.9752732 0.9909621 0.96757716 1.0000455 0.99933153 1.0006866 1.0003153
0.99226063 0.9912598 0.9811049 0.99443173 0.99555075 0.9990715 0.98683757 0.9972946
1.0076909 1.0130047 1.015297 1.0145366 0.9896882 0.995141 0.9979874 1.0049881
0.97982824 1.0201904 0.9785326 0.9858795 1.0256189 1.0014527 0.98541355 0.9800299
0.9864683 1.0043836 1.0227307 0.9917757 1.0004681 1.0366812 1.0096879 0.9974657
0.99673015 1.0114578 0.98388493 0.99718 0.9961285 1.0055525 0.9863772 1.0033603
00000000: 756e 7e3f c25d 7c3f 9a12 7f3f 4c04 823f
00000010: bdbb 7c3f c7ba 7f3f 108c 7c3f 9aad 7f3f
00000020: bbaf 823f 55e9 7c3f e85a 7f3f e04c 7f3f
00000030: 0a39 7c3f f685 813f 20a6 803f 5415 7e3f
00000040: 6cbe 803f 82f9 803f 83de 813f 13bc 813f
00000050: 28b2 7f3f 9641 803f 7c75 803f 8898 853f
00000060: 4080 813f 926a 803f a231 7d3f 5733 7a3f
00000070: 8af6 7f3f 6827 813f dfc5 823f 231b 7c3f
00000080: 4e48 7f3f 142a 7e3f 785a 803f f511 803f
00000090: 1b57 813f 7b8e 7e3f 7475 803f 499f 7f3f
000000a0: 5949 823f 8328 7e3f c824 7f3f b35b 843f
000000b0: 4ad2 7f3f e8c4 7d3f e22f 7e3f 3bcc 803f
000000c0: e163 7b3f ad0b 813f f1d9 813f 57e3 803f
000000d0: 5f69 7a3f bebf 7c3f 2e38 793f e31d 7e3f
000000e0: 9b51 7a3f 5255 7d3f b0b5 803f 124a 813f
000000f0: cddc 813f 7abd 803f b931 803f 6913 7b3f
00000100: 9f7f 7e3f 06d7 7f3f 8410 7c3f 4650 813f
00000110: 1ab0 7f3f acd5 803f 62fb 803f 87d2 7b3f
00000120: 8daa 7c3f e4cb 803f c08d 7e3f 2024 793f
00000130: cc27 7d3f 07c1 803f 05ce 7d3f a7b1 833f
00000140: 54c0 7f3f 81ab 793f b1af 7d3f 23b3 773f
00000150: 7e01 803f 31d4 7f3f 8016 803f 550a 803f
00000160: cb04 7e3f 34c3 7d3f b129 7b3f 1493 7e3f
00000170: 6adc 7e3f 26c3 7f3f 63a1 7c3f b34e 7f3f
00000180: 04fc 803f 23aa 813f 41f5 813f 56dc 813f
00000190: 355c 7d3f 90c1 7e3f 1a7c 7f3f 73a3 803f
000001a0: 06d6 7a3f 9995 823f 1d81 7a3f 9962 7c3f
000001b0: 7b47 833f 9a2f 803f 1044 7c3f 3de3 7a3f
000001c0: 3089 7c3f a48f 803f d7e8 823f 03e5 7d3f
000001d0: 570f 803f f8b1 843f 743d 813f ea59 7f3f
000001e0: b529 7f3f 7377 813f e2df 7b3f 3047 7f3f
000001f0: 4702 7f3f f2b5 803f 3783 7c3f 1c6e 803f

layers.0.batch_norm.bias f4 [128]
0.02665045 -0.004166906 0.02398919 0.01872905 -0.012488204 0.0077926503 0.002431867 -0.000542235
0.016219031 -0.0026861213 -0.024537828 0.02786997 -0.017467145 0.0028848317 0.0031484487 -0.01931788
-0.016457038 0.014377208 -0.0033878353 -0.009690482 0.019235125 -0.026401412 -0.0017884816 0.011781821
0.0015879471 -0.015220118 -0.018689573 -0.0030593574 0.017229924 0.004216146 0.011258077 0.001189198
0.010890059 0.003561404 0.021054545 -0.012952933 0.014720055 -0.0034901462 0.0052635605 0.014655882
0.018485935 -0.0055891476 -0.0060471916 -0.016821137 0.002120896 -0.01146499 0.00014267469 0.010004059
-0.0148573425 0.009960359 0.006609763 -0.016116884 0.00029848467 0.004648337 0.0023867427 -0.004605568
-0.0026145917 -0.010802099 0.016663134 0.0003785466 -0.0013153394 -0.004853578 -0.008747208 -0.018623719
0.014579759 0.021887103 -0.008741233 0.0315199 3.783672e-05 0.019812653 -0.0036391022 0.0071431254
-0.0063280207 0.0033555978 0.0074994774 -0.0026906657 -0.008091304 -0.0019102825 0.0062673357 0.031972263
-0.007960326 -0.034813948 0.004870022 0.005564891 -0.007913937 0.01693397 -0.0010789545 0.020961296
-0.0041125943 0.018165438 -0.010469456 0.002007173 0.013334421 0.021928165 -0.011772612 -0.00258167
-0.013232015 -0.016301539 0.022572033 0.01970796 0.03155909 -0.0069864974 0.01464674 0.00845332
0.0014669676 0.0057243723 -0.028160866 0.004382607 0.026808074 0.0036818362 -0.012929262 -0.00930042
0.010270948 0.03425551 -0.036999058 0.010240248 -0.0044247755 0.015052872 0.015194523 0.010264485
-0.022637555 0.033989023 0.013413015 0.024312526 -0.0047611278 -0.00052984117 -0.003165592 -0.0007773808
00000000: 0b52 da3c 8a8a 88bb fa84 c43c aa6d 993c
00000010: 539b 4cbc 7d59 ff3b f55f 1f3b c624 0eba
00000020: c6dd 843c a309 30bb 8e03 c9bc 904f e43c
00000030: 4217 8fbc 720f 3d3b 3456 4e3b 8840 9ebc
00000040: e9d0 86bc 628e 6b3c 7206 5ebb d4c4 1ebc
00000050: fb92 9d3c c647 d8bc 7c6b eaba 8a08 413c
00000060: aa22 d03a cd5d 79bc e01a 99bc 807f 48bb
00000070: c525 8d3c 9927 8a3b cc73 383c ddde 9b3a
00000080: 386c 323c 7266 693b 957a ac3c 8a38 54bc
00000090: 632c 713c f0ba 64bb f279 ac3b 391f 703c
000000a0: d16f 973c 2b25 b7bb 8527 c6bb 7bcc 89bc
000000b0: bbfe 0a3b a7d7 3bbc f29a 1539 11e8 233c
000000c0: 366c 73bc c630 233c b696 d83b 8e07 84bc
000000d0: ef7d 9c39 1451 983b e66a 1c3b 4eea 96bb
000000e0: 9259 2bbb 49fb 30bc 2081 883c aa77 c639
000000f0: 7767 acba c30a 9fbb 7350 0fbc c590 98bc
00000100: f1df 6e3c 954c b33c 6337 0fbc 031b 013d
00000110: deb2 1e38 254e a23c 017e 6ebb e110 ea3b
00000120: 495b cfbb 97e9 5b3b 2dbe f53b e155 30bb
00000130: 6491 04bc 7262 faba 395e cd3b 59f5 023d
00000140: 076c 02bc 1299 0ebd b594 9f3b b059 b63b
00000150: 75a9 01bc 1cb9 8a3c b56b 8dba 06b7 ab3c
00000160: f1c2 86bb afcf 943c 1588 2bbc c68a 033b
00000170: 9e78 5a3c b2a2 b33c eae1 40bc 3c31 29bb
00000180: 18cb 58bc ce8a 85bc fce8 b83c 9672 a13c
00000190: 1b44 013d fdee e4bb e1f8 6f3c cb7f 0a3c
000001a0: 4447 c03a 8493 bb3b 9eb1 e6bc f99b 8f3b
000001b0: 9b9c db3c f64a 713b 41d5 53bc ca60 18bc
000001c0: 7a47 283c 814f 0c3d 538c 17bd b7c6 273c
000001d0: b5fd 90bb 52a0 763c 73f2 783c 5f2c 283c
000001e0: 6572 b9bc 1338 0b3d 43c2 5b3c 102b c73c
000001f0: 3c03 9cbb 0ae5 0aba d275 4fbb 24c9 4bba

layers.0.batch_norm.running_mean f4 [128]
-0.40646905 0.83758813 0.70261806 0.38622415 -0.4234904 -0.23010018 0.27777708 -0.049386643
-0.6728428 0.9299377 0.74283814 0.03883041 1.4079002 -0.3228793 0.26102316 0.2397019
-0.09106991 0.094206624 -0.0023195054 -0.0033517897 0.82749236 -0.3596042 -0.2209827 -0.090026125
1.0136606 -0.2033054 0.6027193 1.9585248 0.3619532 0.34999385 -0.072428904 0.9051382
0.5106987 1.2434806 -0.30972263 -0.49708965 -0.5713033 1.0347642 -0.25127104 0.41709384
-0.6410812 0.35203695 -0.35764772 -0.20419647 0.75008017 0.31131005 1.076069 -0.5946111
2.300187 0.93637717 -0.7007009 -0.49706757 1.041445 -0.57176846 1.3999012 0.12944673
0.8059276 1.0402168 0.65449893 0.14206359 -0.4999357 -0.37475953 0.09265129 -0.058296934
0.895459 1.8481867 1.1686069 -0.53223103 0.64809144 2.0040994 -0.079101704 1.7164137
-0.20342597 0.49841484 0.48116738 1.224857 0.9196117 1.1656699 1.2284578 0.50237036
0.022542296 0.5554008 0.0093807215 0.31697237 0.5908655 0.22878 0.62450546 0.108991496
1.2191899 0.15398398 0.62503433 0.77529633 0.6216147 0.66063964 1.4468064 0.5971649
-0.44428256 -0.5082068 0.18434 0.9779456 0.3455754 -0.2211345 1.1250917 -0.3572376
-0.5171375 -0.3021642 -0.4640642 -0.44856435 0.10434391 0.9496292 0.406783 0.42117703
1.3479877 0.77361196 -0.12274562 1.2207127 0.80274016 -0.0076150047 0.47209746 0.33336723
-0.9896852 1.1386412 0.58038455 0.50498545 -0.29622853 2.1093974 1.6401457 1.830837
00000000: b61c d0be 2d6c 563f c7de 333f 2cbf c53e
00000010: bcd3 d8be 629f 6bbe cc38 8e3e a649 4abd
00000020: 6d3f 2cbf 6610 6e3f a42a 3e3f a30c 1f3d
00000030: 1336 b43f 7050 a5be d4a4 853e 6a74 753e
00000040: dc82 babd 67ef c03d d802 18bb b3a9 5bbb
00000050: 8ad6 533f 0b1e b8be 4a49 62be 9e5f b8bd
00000060: a1bf 813f 4a2f 50be d04b 1a3f f1b0 fa3f
00000070: ee51 b93e 6532 b33e 9b55 94bd 23b7 673f
00000080: 26bd 023f 5f2a 9f3f f793 9ebe 8982 febe
00000090: ef40 12bf 2773 843f 99a6 80be 538d d53e
000000a0: e61d 24bf 303e b43e 9a1d b7be e118 51be
000000b0: 4105 403f 0864 9f3e a1bc 893f 6f38 18bf
000000c0: 4436 1340 6ab6 6f3f 2261 33bf a47f febe
000000d0: 124e 853f 6b5f 12bf f62f b33f af8d 043e
000000e0: 4551 4e3f d325 853f 3e8d 273f 1e79 113e
000000f0: 92f7 ffbe 7be0 bfbe f6bf bd3d c4c8 6ebd
00000100: cd3c 653f 6291 ec3f e994 953f 4b40 08bf
00000110: 52e9 253f 2a43 0040 1300 a2bd 72b3 db3f
00000120: e64e 50be 3b30 ff3e 925b f63e 1dc8 9c3f
00000130: ac6b 6b3f ac34 953f 1b3e 9d3f 589b 003f
00000140: 9faa b83c bf2e 0e3f 99b1 193c 344a a23e
00000150: f642 173f 4e45 6a3e 97df 1f3f ef36 df3d
00000160: 6a0e 9c3f faad 1d3e 4002 203f d279 463f
00000170: 2422 1f3f ae1f 293f f430 b93f cddf 183f
00000180: 0179 e3be d719 02bf a0c3 3c3e a55a 7a3f
00000190: 42ef b03e 1571 62be 0103 903f d9e7 b6be
000001a0: 2063 04bf 44b5 9abe d399 edbe 3aaa e5be
000001b0: 43b2 d53d e61a 733f dd45 d03e 84a4 d73e
000001c0: dc8a ac3f 6f0b 463f 0e62 fbbd 5040 9c3f
000001d0: 6180 4d3f 4a87 f9bb c2b6 f13e 1caf aa3e
000001e0: 025c 7dbf ffbe 913f 1594 143f ba46 013f
000001f0: 44ab 97be 5e00 0740 4bf0 d13f de58 ea3f

layers.0.batch_norm.running_var f4 [128]
0.019015437 0.1413308 0.03994228 0.14235312 0.065194674 0.04186414 0.036945466 0.050223105
0.03565996 0.12633735 0.06969453 0.09662557 0.17161703 0.051546272 0.009386816 0.01208151
0.003290165 0.029024657 0.004922903 0.0035841716 0.11233825 0.012452982 0.027217582 0.0053980434
0.113681786 0.010995669 0.16186279 0.2511711 0.076524526 0.06283975 0.03920314 0.064239785
0.13317823 0.27857712 0.014069944 0.025979556 0.04816928 0.15103015 0.1203606 0.12014628
0.09804731 0.07276022 0.026180748 0.007682189 0.057035703 0.0712791 0.22303714 0.038420167
0.36197147 0.05471967 0.048433844 0.103148006 0.20929104 0.052573055 0.15461232 0.02724979
0.15773132 0.11587945 0.09291698 0.030454148 0.028062988 0.052517552 0.041664284 0.024972033
0.20587781 0.3042252 0.10504023 0.08222354 0.105443306 0.44210115 0.047487814 0.32222193
0.073786445 0.057191517 0.12412802 0.122255296 0.12035097 0.06498088 0.18781866 0.030940635
0.0071366196 0.065673105 0.19732654 0.08119384 0.060653545 0.37786987 0.14527787 0.030326102
0.15295261 0.078393735 0.06529983 0.3388378 0.2135368 0.30463645 0.21693578 0.122128114
0.051507585 0.03961719 0.035494823 0.22261946 0.1728054 0.38788524 0.25389275 0.021951862
0.052156914 0.016780224 0.015753936 0.19056675 0.021416418 0.15004681 0.061178688 0.056696333
0.26480815 0.07954709 0.003453876 0.11297314 0.14077874 0.006353612 0.037846886 0.012469237
0.08365975 0.1483825 0.067897126 0.08981562 0.02387961 0.61835176 0.2385026 0.3056199
00000000: 43c6 9b3c 05b9 103e 849a 233d 04c5 113e
00000010: c984 853d bc79 2b3d 2154 173d beb6 4d3d
00000020: 2e10 123d 945e 013e 01bc 8e3d a0e3 c53d
00000030: 60bc 2f3e 2f22 533d 29cb 193c 87f1 453c
00000040: cf9f 573b 1ec5 ed3c 4e50 a13b 6ce4 6a3b
00000050: 9911 e63d 9807 4c3c 68f7 de3c 12e2 b03b
00000060: ffd1 e83d 2e27 343c 5cbf 253e 8099 803e
00000070: e4b8 9c3d 20b2 803d 7993 203d 2690 833d
00000080: e05f 083e a9a1 8e3e 9f85 663c 14d3 d43c
00000090: 274d 453d a6a7 1a3e 9e7f f63d 410f f63d
000000a0: 07cd c83d 4f03 953d 0279 d63c dfba fb3b
000000b0: 459e 693d c7fa 913d d963 643e 775e 1d3d
000000c0: 5354 b93e bc21 603d 9162 463d 433f d33d
000000d0: 6450 563e d856 573d b152 1e3e f43a df3c
000000e0: 5284 213e 3552 ed3d 424b be3d fa7a f93c
000000f0: 5ae4 e53c a51c 573d 2ba8 2a3d 2692 cc3c
00000100: a2d1 523e 68c3 9b3e 551f d73d d164 a83d
00000110: a9f2 d73d 155b e23e 9582 423d 46fa a43e
00000120: 591d 973d a741 6a3d d536 fe3d fc60 fa3d
00000130: 927a f63d b214 853d 8953 403e 3777 fd3c
00000140: 4eda e93b 9f7f 863d f80f 4a3e f548 a63d
00000150: da6f 783d 2978 c13e b9c3 143e 726e f83c
00000160: 9c9f 1c3e e58c a03d ebbb 853d 267c ad3e
00000170: 64a9 5a3e 4ff9 9b3e 6a24 5e3e 4e1e fa3d
00000180: 9ef9 523d a245 223d 0563 113d 5bf6 633e
00000190: e6f3 303e e598 c63e 3bfe 813e 64d4 b33c
000001a0: 7da2 553d ae76 893c 660e 813c ee23 433e
000001b0: 7c71 af3c dfa5 193e 8196 7a3d 6a3a 683d
000001c0: ef94 873e 96e9 a23d 6c5a 623b 765e e73d
000001d0: 4d28 103e f631 d03b 5605 1b3d c54b 4c3c
000001e0: ce55 ab3d 95f1 173e a60d 8b3d 40f1 b73d
000001f0: 2c9f c33c 4d4c 1e3f 073a 743e 367a 9c3e

layers.0.mlp.layers.0.weight f4 [128, 67]
-0.110327646 0.121748865 -0.01662196 0.076804474 -0.044800032 -0.032596376 0.029771252 0.06715518
-0.0943526 -0.016821068 -0.036822036 -0.049550015 -0.059787687 0.1016754 0.018497478 -0.09922716
-0.110670656 0.10291695 -0.058846917 0.119048744 0.11223962 0.022546846 0.008234232 -0.09126098
0.012954141 0.061455958 -0.11571181 -0.0025155356 0.098569475 0.05101848 -0.029811582 -0.0731786
0.035857443 0.009217352 -0.06640598 0.032871325 0.07891061 0.064613834 -0.0034833106 0.02329721
0.08769491 -0.055172004 -0.03375311 -0.12225768 0.09456424 0.09704379 -0.01890265 0.05354455
0.018496953 0.02209426 0.11269286 -0.017818185 -0.0512547 0.078521475 -0.016913777 -0.102135256
-0.018114718 0.05424181 -0.034025412 -0.07762253 0.11627298 0.10493431 -0.06337209 -0.0022287306
-0.09310652 0.032590047 -0.116385385 0.02047872 -0.03087847 -0.07584724 -0.03898263 0.07392969
0.04280794 0.029188635 0.08695428 0.028608194 -0.06407027 0.10922736 -0.0014744024 0.0017980868
-0.05681428 0.051287226 -0.050931435 0.031908285 0.019583289 0.061064485 -0.062021304 -0.013535989
0.084065355 0.11041358 0.009859036 -0.02261303 -0.10515518 0.088313915 0.090439096 -0.023298506
4.7727663e-05 0.0049316566 0.06944907 -0.11648475 -0.10837992 -0.030088453 0.041666903 0.0010066755
-0.041933965 0.07275864 -0.072586216 -0.008750554 -0.026746599 0.11197172 0.09186819 -0.03783794
-0.0069751544 0.064187445 0.01182276 -0.028075429 -0.03516582 0.12574157 0.0912994 -0.010394405
0.108996175 -0.127026 0.042638313 -0.064520754 0.09870194 0.012690138 0.08331653 -0.06378495
-0.05451133 0.043257352 0.111411795 -0.05824082 0.08641231 -0.0947564 -0.03723017 0.00503099
0.026654752 -0.053443447 0.047022324 -0.010126118 0.1150883 -0.010586866 -0.108566515 -0.079112485
-0.092802785 0.0753808 0.04179948 -0.028484643 0.020239195 -0.005032937 0.028182317 0.020710316
0.060458045 -0.020499846 0.06853788 0.008035595 0.08066095 -0.05754091 0.05431036 0.047448535
-0.020491913 -0.10114881 -0.04208989 -0.11311354 0.0596567 -0.032446116 -0.11973488 -0.07809833
-0.1189827 -0.02303959 0.03665211 -0.01878734 0.011763489 -0.023009662 0.12062762 -0.05941689
-0.025001809 0.007591518 -0.06806841 -0.10125306 0.122281514 -0.119204305 0.07626498 -0.043585222
-0.02001543 -0.05774491 -0.058612686 -0.054686498 0.11264644 -0.0002942378 0.004680204 0.079039216
-0.08844214 -0.019347867 -0.0622676 0.024071556 -0.060770225 -0.066383004 0.05832958 0.016333029
-0.052577652 0.042204037 0.099003494 0.033614416 0.04708107 0.050790787 0.06783057 0.11486452
0.059685115 -0.10039487 0.093442336 0.11460437 0.002282438 -0.057810966 -0.060366634 -0.016105054
0.0073119435 0.09329743 0.0045815865 0.05974163 -0.046015665 0.09881749 0.070693694 0.046101283
-0.059199225 0.096634254 -0.047443107 -0.12041994 0.052360997 -0.116732694 -0.102869324 0.047902375
-0.05044165 0.075725056 0.020072106 0.047360368 0.1089265 -0.0059289923 -0.025755284 -0.022097128
-0.005783208 -0.10211798 -0.09713498 0.013887305 0.050946645 0.014044098 0.11673736 -0.029610392
-0.098952 0.021803992 -0.10747159 0.09695949 0.09797446 -0.09756443 0.045510214 0.118480735
00000000: 76f3 e1bd 7857 f93d c72a 88bc aa4b 9d3d
00000010: 3d80 37bd c783 05bd d7e2 f33c a888 893d
00000020: f03b c1bd 56cc 89bc b4d2 16bd f5f4 4abd
00000030: efe3 74bd 313b d03d 0688 973c 9c37 cbbd
00000040: 4ca7 e2bd 1fc6 d23d 7709 71bd d4cf f33d
00000050: e3dd e53d 2ab4 b83c dfe8 063c 09e7 babd
00000060: 9b3d 543c 3eb9 7b3d 50fa ecbd afdb 24bb
00000070: cbde c93d c1f8 503d 6b37 f4bc a9de 95bd
00000080: 41df 123d 6004 173c dcff 87bd 15a4 063d
00000090: e39b a13d 4254 843d 4148 64bb cad9 be3c
000000a0: 6499 b33d 0afc 61bd b340 0abd 3c62 fabd
000000b0: e5aa c13d e5be c63d bbd9 9abc 8851 5b3d
000000c0: ec86 973c 06ff b43c 84cb e63d 71f7 91bc
000000d0: 73f0 51bd decf a03d c38e 8abc 4a2c d1bd
000000e0: 5165 94bc a92c 5e3d 3b5e 0bbd 90f8 9ebd
000000f0: 8720 ee3d cde7 d63d 3ac9 81bd e50f 12bb
00000100: a2ae bebd 247d 053d 765b eebd fdc2 a73c
00000110: d8f4 fcbc cc55 9bbd 40ac 1fbd 7368 973d
00000120: 6157 2f3d 011d ef3c 1615 b23d bb5b ea3c
00000130: 4637 83bd 98b2 df3d bc40 c1ba c8ad eb3a
00000140: 17b6 68bd 8e12 523d 7b9d 50bd 43b2 023d
00000150: 226d a03c c11e 7a3d 0d0a 7ebd 0ec6 5dbc
00000160: 752a ac3d 8420 e23d cb87 213c f63e b9bc
00000170: 995b d7bd eddd b43d 2238 b93d 82dc bebc
00000180: 302f 4838 bc99 a13b 503b 8e3d 8e8f eebd
00000190: 4bf6 ddbd 0f7c f6bc eaaa 2a3d 6df2 833a
000001a0: f3c2 2bbd 7b02 953d 15a8 94bd 7c5e 0fbc
000001b0: af1b dbbc 6e51 e53d 6425 bc3d f5fb 1abd
000001c0: d68f e4bb b574 833d 40b4 413c 71fe e5bc
000001d0: 090a 10bd 66c2 003e 2efb ba3d 4b4d 2abc
000001e0: 6339 df3d 1b13 02be 83a5 2e3d 7523 84bd
000001f0: 3e24 ca3d 4cea 4f3c dba1 aa3d afa1 82bd
00000200: 4647 5fbd 9f2e 313d de2b e43d ed8d 6ebd
00000210: f0f8 b03d a50f c2bd aa7e 18bd 01db a43b
00000220: 115b da3c 84e7 5abd 7b9a 403d 04e8 25bc
00000230: 6ab3 eb3d 8974 2dbc 1f58 debd ba05 a2bd
00000240: 630f bebd 4061 9a3d ee35 2b3d a058 e9bc
00000250: abcc a53c 56eb a4bb 9ade e63c aea8 a93c
00000260: dba2 773d 4bef a7bc 975d 8c3d baa7 033c
00000270: 9131 a53d 04b0 6bbd 8a74 5e3d 6559 423d
00000280: a8de a7bc 1b27 cfbd 7366 2cbd 12a8 e7bd
00000290: 955a 743d 38e6 04bd 9037 f5bd 04f2 9fbd
000002a0: 34ad f3bd 86bd bcbc 8620 163d e8e7 99bc
000002b0: a6bb 403c c27e bcbc 9d0b f73d 205f 73bd
000002c0: 98d0 ccbc 45c2 f83b 7367 8bbd c45d cfbd
000002d0: bb6e fa3d 6321 f4bd d030 9c3d 6b86 32bd
000002e0: 66f7 a3bc ed85 6cbd db13 70bd f3fe 5fbd
000002f0: 2db3 e63d ee43 9ab9 665c 993b 50df a13d
00000300: 2721 b5bd 6b7f 9ebc 500c 7fbd b631 c53c
00000310: 33ea 78bd d0f3 87bd ffea 6e3d d8cc 853c
00000320: aa5b 57bd 24de 2c3d 58c2 ca3d 45af 093d
00000330: 14d8 403d 000a 503d c1ea 8a3d 173e eb3d
00000340: 6178 743d d39b cdbd b25e bf3d b2b5 ea3d
00000350: f594 153b 31cb 6cbd 0143 77bd bfee 83bc
00000360: 0799 ef3b b912 bf3d 2221 963b a4b3 743d
00000370: ec7a 3cbd d360 ca3d dbc7 903d b3d4 3c3d
00000380: e37a 72bd 2ee8 c53d b453 42bd bb9e f6bd
00000390: 7c78 563d 8d11 efbd 27ad d2bd 4835 443d
000003a0: e79b 4ebd bd15 9b3d 426e a43c f2fc 413d
000003b0: db14 df3d fe47 c2bb bffc d2bc 0905 b5bc
000003c0: 1181 bdbb 3b23 d1bd b4ee c6bd 9487 633c
000003d0: 6ead 503d 3719 663c ff13 ef3d 7e91 f2bc
000003e0: 59a7 cabd 499e b23c 111a dcbd b292 c63d
000003f0: d5a6 c83d dccf c7bd eb68 3a3d 07a6 f23d

layers.0.mlp.layers.0.bias f4 [128]
-0.055299062 -0.07019136 0.048293002 -0.10489544 0.12793918 0.01815977 0.0032031205 0.035632227
-0.049958177 0.0673063 0.09240801 0.08485666 0.11937467 0.036247246 -0.042887393 0.03826351
-0.0945619 -0.035735257 -0.08954365 -0.09701642 -0.110682905 -0.04115797 0.02687152 0.026814125
0.052445132 -0.09056224 0.12673634 0.10393522 0.058224156 0.10421819 -0.030405238 0.028780933
0.008108142 0.00864615 -0.07983827 -0.004213775 0.086899705 -0.016199922 0.09736697 -0.011850921
-0.07199076 0.08482839 -0.05445533 -0.047617905 -0.036376856 0.007938589 0.0916876 0.07605727
0.09691883 -0.030818067 0.1113277 0.007105672 0.00065128325 0.025455283 0.015960991 0.110870965
0.030024918 0.0029563867 -0.10384126 0.017208278 0.012546379 0.008717187 0.00564229 0.06087869
0.01714171 0.08149762 -0.09916747 -0.062541135 -0.023136737 0.022157265 -0.082868315 -0.067463085
0.10266346 0.10967373 -0.025089728 -0.014174137 0.07442037 -0.06109295 0.0009972343 0.122257635
0.04946057 -0.074069016 -0.030024493 -0.0750865 -0.030691585 -0.06798514 0.04037718 -0.02224705
-0.10951624 -0.09994423 0.0063311975 -0.101674475 -0.09608297 0.05388816 -0.07589857 -0.06637386
0.0866074 0.041968673 0.025229432 -0.08043328 -0.056719426 -0.06378361 0.026294367 -0.06786002
-0.08367424 -0.032161064 -0.11549676 -0.10866978 0.08277041 0.020076206 0.014651042 0.119021535
-0.05375839 0.090176046 0.10350634 0.12032805 -0.09151555 0.11632572 0.030880665 -0.09689088
0.007366593 0.04349785 0.058052305 0.0894338 0.053301595 0.0171314 0.026494764 0.09508905
00000000: 4581 62bd 7dc0 8fbd e2ce 453d 6cd3 d6bd
00000010: 7d02 033e ccc3 943c 72eb 513b 19f3 113d
00000020: f2a0 4cbd e3d7 893d 6940 bd3d 54c9 ad3d
00000030: b57a f43d fe77 143d b1aa 2fbd 33ba 1c3d
00000040: aba9 c1bd 225f 12bd a962 b7bd 8bb0 c6bd
00000050: b8ad e2bd 4295 28bd a921 dc3c 4ca9 db3c
00000060: b5d0 563d b278 b9bd 2cc7 013e fddb d43d
00000070: 747c 6e3d 5970 d53d 6814 f9bc fec5 eb3c
00000080: 03d8 043c 95a8 0d3c 3f82 a3bd b513 8abb
00000090: 79f8 b13d b3b5 84bc 5568 c73d 5e2a 42bc
000000a0: e46f 93bd 82ba ad3d 8d0c 5fbd fe0a 43bd
000000b0: e6ff 14bd db10 023c b5c6 bb3d eac3 9b3d
000000c0: 617d c63d 2c76 fcbc c7ff e33d b2d6 e83b
000000d0: e1ba 2a3a 9987 d03c a0c0 823c 5110 e33d
000000e0: d1f6 f53c f0bf 413b baaa d4bd 60f8 8c3c
000000f0: 548f 4d3c 88d2 0e3c f6e2 b83b ef5b 793d
00000100: c56c 8c3c 39e8 a63d 5118 cbbd 9115 80bd
00000110: 4189 bdbc 2783 b53c ddb6 a9bd 162a 8abd
00000120: 3841 d23d 9f9c e03d f988 cdbc a43a 68bc
00000130: b569 983d 9a3c 7abd a1b5 823a 3662 fa3d
00000140: 2b97 4a3d 7fb1 97bd edf5 f5bc f3c6 99bd
00000150: eb6c fbbc cb3b 8bbd 8b62 253d 723f b6bc
00000160: 0d4a e0bd 8faf ccbd ef75 cf3b b53a d0bd
00000170: 26c7 c4bd d5b9 5c3d b670 9bbd 05ef 87bd
00000180: 385f b13d 58e7 2b3d f4ad ce3c 34ba a4bd
00000190: a152 68bd fba0 82bd 4967 d73c 32fa 8abd
000001a0: 665d abbd 52bb 03bd 9189 ecbd 438e debd
000001b0: 8883 a93d db76 a43c ed0a 703c 90c1 f33d
000001c0: c231 5cbd 38ae b83d 22fb d33d 8d6e f63d
000001d0: 816c bbbd 2e3c ee3d 73f9 fc3c ba6e c6bd
000001e0: 7663 f13b cd2a 323d 41c8 6d3d 1129 b73d
000001f0: c652 5a3d 2657 8c3c 8c0b d93c 0cbe c23d

layers.0.mlp.layers.1.weight f4 [128, 128]
-0.024341755 0.052542843 0.034952424 0.08485762 0.04403155 0.07498498 0.04371525 -0.046398357
0.028739303 -0.07203556 -0.002417111 0.020970933 0.031374462 -0.0110446345 0.038533155 0.018486777
-0.08689807 0.07247357 -0.04572719 0.017773073 0.018266613 -0.061438188 -0.062386334 0.0029005776
-0.050610747 0.027437229 0.017018791 -0.046879 -0.02486899 0.033592325 -0.02589791 -0.026985668
-0.019025436 -0.026857447 -0.08832411 0.035714343 0.032421675 -0.0834694 -0.033303533 -0.07102934
-0.018379861 0.028841436 -0.005794159 0.016550267 -0.05948432 0.075818956 -0.078567095 -0.0870236
-0.023852028 0.032671258 -0.08341318 0.04451275 -0.06300659 0.08489176 0.031519268 0.013756099
0.06456822 -0.07157842 -0.07824337 -0.030099941 0.02349101 -0.00048362455 0.03379661 -0.057152357
-0.075770505 -0.08376605 -0.063904904 0.069663815 -0.022476576 0.02599153 0.08138641 0.08777292
-0.06241865 0.078206286 0.02494436 -0.003282976 -0.08001088 0.010787159 0.008831619 0.0549528
-0.084374525 -0.07970577 0.039110567 -0.038281403 0.07890704 -0.050786667 -0.05417457 0.06885718
-0.062429197 0.021351214 0.044060018 -0.019467039 0.001998498 0.05188042 0.07657408 -0.022491539
0.016893806 -0.07916569 0.021801647 0.082249455 -0.026323952 -0.020250307 0.014363477 0.035026517
-0.009992038 0.087420456 -0.0009164727 -0.0029007357 0.061050974 0.018437708 -0.086138055 -0.00550087
0.021551054 -0.03515163 0.049687255 -0.08693038 0.063651204 -0.08666257 0.047714382 0.048975576
0.034296703 -0.08695683 -0.04761047 -0.008978469 -0.034031756 -0.064429 -0.055001266 -0.041694213
0.070146635 0.0860446 0.036923155 0.08105549 -0.0038423701 -0.06880354 -0.024209034 -0.002467698
-0.03285449 -0.087785944 -0.04317143 -0.03654349 0.025329065 -0.046938628 0.04683985 -0.06816285
-0.053573184 -0.013840856 -0.0343638 0.069790155 -0.06968413 -0.010731556 -0.07782189 -0.06504706
-0.081883684 0.015733428 0.059719566 -0.02189555 0.040983807 0.013192628 -0.08388781 -0.02339247
-0.06623771 0.034579836 0.08613544 0.08517266 -0.027347794 -0.011365225 -0.0475577 0.01796207
-0.07997158 -0.0791346 -0.024142094 -0.048292607 -0.045453835 0.074394464 0.039653778 -0.081470005
-0.084296025 0.04606599 0.03082161 -0.06058051 -0.017674617 -0.085011646 0.018086972 0.06657056
-0.02771505 -0.0013980321 -0.06745702 0.033329234 0.08756479 0.060963657 -0.082988575 0.017406058
-0.057968035 -0.05181799 -0.00018806977 -0.043468837 -0.023960263 0.050108705 0.02968687 -0.0454515
0.0136046335 0.0062304316 0.06776368 -0.036154874 0.082748875 -0.0068677235 0.0044503487 -0.0709366
-0.057554346 -0.006450965 -0.06999689 -0.046632156 -0.07527012 0.014352646 -0.05474335 -0.030076222
0.009741106 -0.0717899 0.017713225 -0.083919495 0.060602922 -0.07896068 0.04360255 0.04474031
0.04873326 0.010763398 -0.030014541 -0.047122285 -0.06628797 0.08711809 -0.03484654 0.009110483
-0.01490812 0.04794969 -0.0036425414 -0.066606686 -0.031007193 0.016461642 0.06641433 -0.045466967
0.04308375 0.041395433 -0.013018202 0.07584928 0.03504207 0.0070504514 -0.023880245 0.03347717
0.053778347 0.006387334 0.010531149 -0.07846785 0.03398945 -0.057889074 -0.045050282 -0.017739281
00000000: 5c68 c7bc 2a37 573d 462a 0f3d d5c9 ad3d
00000010: 6d5a 343d ba91 993d c30e 333d 340c 3ebd
00000020: b06e eb3c 6187 93bd 6568 1ebb 3ccb ab3c
00000030: 8282 003d 8ef4 34bc f1d4 1d3d 9571 973c
00000040: 9ef7 b1bd 066d 943d 6f4c 3bbd d698 913c
00000050: dda3 953c 9ca6 7bbd d088 7fbd 9e17 3e3b
00000060: 374d 4fbd 0ac4 e03c fe6a 8b3c 3204 40bd
00000070: 0dba cbbc 1b98 093d db27 d4bc 0c11 ddbc
00000080: 3bdb 9bbc 2604 dcbc 45e3 b4bd 3449 123d
00000090: 97cc 043d 01f2 aabd 4969 08bd d577 91bd
000000a0: 5d91 96bc e044 ec3c eedc bdbb 6d94 873c
000000b0: d5a5 73bd f846 9b3d c9e7 a0bd 6e39 b2bd
000000c0: 5465 c3bc 4cd2 053d 88d4 aabd 0053 363d
000000d0: 9909 81bd bbdb ad3d 591a 013d 4361 613c
000000e0: 583c 843d b597 92bd 0f3e a0bd 2794 f6bc
000000f0: 3870 c03c fd8e fdb9 506e 0a3d 9718 6abd
00000100: 912d 9bbd 898d abbd 93e0 82bd e7ab 8e3d
00000110: cc20 b8bc 30ec d43c ebad a63d 4ac2 b33d
00000120: b3aa 7fbd 9e2a a03d 1d58 cc3c 3327 57bb
00000130: bfdc a3bd a0bc 303c 7fb2 103c 3016 613d
00000140: 8dcc acbd c73c a3bd 6732 203d f6cc 1cbd
00000150: 049a a13d ae05 50bd 27e6 5dbd fe04 8d3d
00000160: c2b5 7fbd bee8 ae3c 4778 343d 5779 9fbc
00000170: 3cf9 023b 9080 543d dfd2 9c3d 2d40 b8bc
00000180: e164 8a3c 9f21 a2bd 5e99 b23c 6772 a83d
00000190: 54a5 d7bc f9e3 a5bc ca54 6b3c f777 0f3d
000001a0: a5b5 23bc 7f09 b33d 713f 70ba 451a 3ebb
000001b0: 9610 7a3d ad0a 973c 2669 b0bd a440 b4bb
000001c0: d68b b03c 28fb 0fbd dd84 4b3d 8e08 b2bd
000001d0: 905b 823d 257c b1bd 2870 433d 9d9a 483d
000001e0: b37a 0c3d 6c16 b2bd 3203 43bd 6e1a 13bc
000001f0: e264 0bbd 5af3 83bd 0249 61bd 8dc7 2abd
00000200: 0aa9 8f3d 2738 b03d bc3c 173d 6c00 a63d
00000210: 46d0 7bbb dfe8 8cbd 0652 c6bc 1ab9 21bb
00000220: 6e92 06bd 1ec9 b3bd 86d4 30bd a0ae 15bd
00000230: e67e cf3c b842 40bd 24db 3f3d f798 8bbd
00000240: 8e6f 5bbd c2c4 62bc 0ec1 0cbd 24ee 8e3d
00000250: 8eb6 8ebd 69d3 2fbc 1561 9fbd 6537 85bd
00000260: a2b2 a7bd 64e3 803c 819c 743d 4c5e b3bc
00000270: a3de 273d e425 583c 5fcd abbd 91a1 bfbc
00000280: a3a7 87bd 96a3 0d3d c767 b03d 016f ae3d
00000290: 7b08 e0bc 3535 3abc ddcb 42bd 3125 933c
000002a0: 24c8 a3bd 5211 a2bd a4c5 c5bc 78ce 45bd
000002b0: cd2d 3abd 205c 983d 006c 223d bfd9 a6bd
000002c0: 65a3 acbd b1af 3c3d 9a7d fc3c 4523 78bd
000002d0: 5cca 90bc 961a aebd 212b 943c 2556 883d
000002e0: ac0a e3bc 2c3e b7ba e826 8abd 3c84 083d
000002f0: 2b55 b33d 07b5 793d eaf5 a9bd 2697 8e3c
00000300: e46f 6dbd 1a3f 54bd 9834 45b9 610c 32bd
00000310: 5048 c4bc c93e 4d3d e131 f33c 5a2b 3abd
00000320: f8e5 5e3c a628 cc3b afc7 8a3d 2217 14bd
00000330: 3e78 a93d a40a e1bb 3bd4 913b 3547 91bd
00000340: 1bbe 6bbd 9e62 d3bb 885a 8fbd 5c01 3fbd
00000350: 3827 9abd 5c27 6b3c 903a 60bd 6962 f6bc
00000360: 2999 1f3c 9506 93bd 531b 913c fcdd abbd
00000370: c53a 783d 23b6 a1bd 9698 323d 9e41 373d
00000380: 879c 473d f758 303c 0ee1 f5bc 4c03 41bd
00000390: fdc1 87bd f86a b23d 3fbb 0ebd 2344 153c
000003a0: 3041 74bc e566 443d b4b7 6ebb 1669 88bd
000003b0: cc02 febc 91da 863c 3c04 883d 923b 3abd
000003c0: 9678 303d 428e 293d 4c4a 55bc de56 9b3d
000003d0: 4688 0f3d 7907 e73b 81a0 c3bc 5b1f 093d
000003e0: af46 5c3d d74c d13b d78a 2c3c c1b3 a0bd
000003f0: 8638 0b3d 181d 6dbd a586 38bd f851 91bc

layers.0.mlp.layers.1.bias f4 [128]
-0.019779822 -0.07573018 -0.085800685 -0.0044453517 -0.029740287 -0.012062651 0.0012716277 -0.089318395
0.020930335 -0.019738138 -0.0671903 -0.008243544 -0.06249849 0.012545186 0.04287733 -0.07712434
0.028034206 -0.022672469 0.0005202896 0.03048461 -0.021559082 -0.067795604 -0.026461303 0.048620276
0.05220524 -0.082567155 0.023344317 -0.08445253 -0.015556124 -0.025908947 0.04155333 -0.0099287275
0.055189114 0.034702994 -0.027191143 0.067073464 0.0608534 0.03870882 0.045151934 -0.01506733
-0.029548662 -0.026272777 0.0722067 -0.0585306 0.026960844 0.07687157 0.09244481 -0.04598166
-0.054707803 -0.008549901 -0.01339303 -0.05731136 0.08155787 -0.04859762 -0.029514715 0.07020848
0.074921735 0.035895634 0.04369892 0.041825473 -0.0418671 0.023551883 0.047060117 -0.029213248
-0.004529921 0.074800536 0.055124756 -0.028292691 -0.056870755 -0.00014418957 0.016833294 0.020885384
0.0045067235 -0.024306118 0.020155203 -0.0010754522 0.08999385 -0.06252263 -0.023263361 -0.03783563
-0.052598454 0.07869848 -0.07334963 -0.036911603 0.087449946 -0.046942607 -0.037387397 0.09569032
-0.030459464 -0.03807461 -0.06049229 0.06511712 -0.007953458 0.06361632 -0.073830746 0.016513865
-0.0029677455 -0.011775358 0.08532412 0.03764263 -0.1022108 0.059972737 -0.037395064 -0.00545887
0.089060165 0.053989425 0.033250734 0.021103049 -0.05229113 -0.050437357 -0.07238245 -0.08023428
-0.00056277914 -0.06376965 -0.017388724 -0.0077471742 -0.088914365 -0.058674898 0.037909586 0.028203765
-0.010678446 -0.04892941 -0.04923682 0.055973183 -0.04150383 0.067429654 -0.021240035 0.07447339
00000000: 4b09 a2bc 6d18 9bbd 45b8 afbd 50aa 91bb
00000010: e7a1 f3bc 6da2 45bc bfac a63a 90ec b6bd
00000020: 1876 ab3c e0b1 a1bc 119b 89bd ee0f 07bc
00000030: 6bfe 7fbd 538a 4d3c 24a0 2f3d 5ef3 9dbd
00000040: fea7 e53c 9dbb b9bc 0b64 083a dcba f93c
00000050: ac9c b0bc 6cd8 8abd 60c5 d8bc 0e26 473d
00000060: 29d5 553d f818 a9bd 953c bf3c 73f5 acbd
00000070: 1ddf 7ebc 003f d4bc d333 2a3d 1aac 22bc
00000080: fb0d 623d ba24 0e3d f6bf debc d05d 893d
00000090: 6a41 793d 248d 1e3d 3cf1 383d f6dc 76bc
000000a0: 0910 f2bc 023a d7bc 1be1 933d c8bd 6fbd
000000b0: fddc dc3c d76e 9d3d b453 bd3d 4457 3cbd
000000c0: 4a15 60bd e214 0cbc 706e 5bbc 51bf 6abd
000000d0: d007 a73d 4c0e 47bd d8c8 f1bc 77c9 8f3d
000000e0: 9170 993d 4d07 133d a4fd 323d 3051 2b3d
000000f0: d67c 2bbd e1ef c03c 1cc2 403d 9f50 efbc
00000100: bb6f 94bb 0631 993d 7fca 613d 13c6 e7bc
00000110: 4ff1 68bd 9831 17b9 fae5 893c d317 ab3c
00000120: 23ad 933b a01d c7bc 861c a53c 30f6 8cba
00000130: b24e b83d dd0b 80bd ce92 bebc 89f9 1abd
00000140: 7a71 57bd ab2c a13d 5538 96bd 9f30 17bd
00000150: f518 b33d e446 40bd 8723 19bd 49f9 c33d
00000160: 2086 f9bc 1ff4 1bbd c3c6 77bd 205c 853d
00000170: 394f 02bc 4649 823d 9334 97bd 1648 873c
00000180: 827e 42bb 6eed 40bc 6abe ae3d 292f 1a3d
00000190: e553 d1bd f9a5 753d 912b 19bd 52e0 b2bb
000001a0: 2d65 b63d 0424 5d3d ec31 083d 4de0 ac3c
000001b0: 392f 56bd 6797 4ebd 403d 94bd df51 a4bd
000001c0: 7887 13ba aa99 82bd cc72 8ebc 02dc fdbb
000001d0: bc18 b6bd 1755 70bd 1547 1b3d 950b e73c
000001e0: a6f4 2ebc 346a 48bd 8cac 49bd 2344 653d
000001f0: ecff 29bd 8f18 8a3d 95ff adbc 8185 983d

layers.0.mlp.layers.2.weight f4 [128, 128]
0.012966553 -0.0036748042 0.02866235 0.036538664 0.013710649 0.079933554 0.036267977 -0.09245053
-0.051874004 0.010582583 0.0019002269 -0.06759324 0.022050805 -0.050891075 0.009450647 -0.023938205
0.037707873 -0.08302379 -0.084006585 -0.038326856 0.0500473 0.012784709 0.00025696759 0.033068813
-0.05263505 -0.0154453935 0.034568943 -0.082746655 0.04933703 0.03445971 0.04081751 0.07230416
-0.03101767 -0.038980074 0.05724422 -0.096874796 -0.022346564 -0.014695973 -0.045578968 0.020612983
-0.08995629 -0.088397615 -0.06725426 -0.084128566 -0.0056371973 -0.0873848 -0.052032378 -0.07030878
0.011993335 -0.007548571 -0.012257737 0.054240074 -0.029699525 0.05410027 -0.061117396 -0.067447044
-0.012743952 -0.04966147 0.08391582 0.043288674 -0.07349899 0.012295144 -0.05021391 -0.0033603339
-0.09352444 -0.0074831694 -0.08696363 -0.051907934 0.027965182 -0.04995066 -0.037718646 0.015942397
-0.034619328 -0.06283406 -0.015713742 0.0362909 0.024344703 -0.016817082 0.012634799 0.0067695845
-0.054972317 0.057390638 0.031676944 0.038494013 0.08641847 0.04913548 0.056878965 0.010705101
-0.054608166 0.0659849 0.069503404 0.03403582 0.08323408 -0.0819563 -0.06052273 0.06620334
0.03602691 0.03404237 0.010517881 -0.052961405 -0.005402554 0.053727295 0.019540243 0.06211014
-0.021108348 -0.043903094 -0.026399465 0.045538608 -0.035862263 0.056807254 -0.042984013 -0.00942873
-0.018031914 -0.07787515 -0.013398429 0.030330528 -0.057647508 0.005844293 -0.04368212 -0.08637733
0.08925019 0.02310064 0.059256963 -0.026707256 -0.032688104 0.03912809 0.06676613 -0.064529225
-0.03750299 -0.008033977 0.0016647631 0.071925215 0.03302886 -0.05058844 0.05400379 0.034432743
0.08358982 -0.03722901 0.048200708 0.055389807 0.038217433 -0.0016708563 0.052508816 -0.08550594
0.0058218786 0.014380251 -0.024220668 0.13645276 -0.040684476 0.07387634 0.06905066 0.11200115
0.02688886 0.080490164 0.028748102 0.0027779788 0.053428657 -0.09152565 0.072845526 -0.017380837
0.08414414 -0.0225397 -0.08515016 -0.037171192 -0.04355937 0.042995308 0.070330076 -0.043528672
0.00776404 -0.016312113 -0.012614787 0.043457765 -0.07242908 -0.027902193 -0.03396216 -0.072382905
0.07049264 -0.035115995 -0.034253933 0.059195254 0.027844952 -0.07993812 -0.045730002 0.05450611
0.08587198 -0.06996659 0.09452543 0.0019930042 0.0642504 -0.017198848 0.02151756 -0.032207653
0.04907032 0.0819588 0.032950465 0.030559434 0.09021159 -0.011953972 -0.039331544 -0.022377783
0.06723006 -0.023768667 -0.023883298 -0.022494229 0.058931228 0.025375951 -0.065526836 -0.042135853
-0.07337454 -0.048670962 -0.03973282 0.09353741 0.04469144 0.073615424 -0.043249063 -0.04120228
0.06811768 -0.0035363024 -0.08605253 0.027272936 0.073752284 0.053189445 0.008670434 0.0230283
0.0018047806 0.052834228 -0.021654809 0.00475814 -0.047329362 -0.041109663 -0.028204424 0.06849575
0.07563851 -0.042542826 0.08798918 0.050795075 -0.011349274 0.05347174 -0.0026986531 -0.05573718
-0.08118646 0.081682086 0.023767008 0.05658557 -0.07803194 -0.08353711 0.057426244 -0.057208627
-0.018963207 -0.08123841 -0.0027896764 0.016229177 -0.023907233 0.04834878 0.00547227 0.0016688645
00000000: aa71 543c fcd4 70bb 4ecd ea3c 91a9 153d
00000010: a1a2 603c 34b4 a33d bb8d 143d b456 bdbd
00000020: d679 54bd 9262 2d3c 0911 f93a 536e 8abd
00000030: e4a3 b43c 2973 50bd e3d6 1a3c 0e1a c4bc
00000040: 9273 1a3d 6008 aabd a50b acbd 9ffc 1cbd
00000050: 66fe 4c3d f576 513c 9bb9 8639 2a73 073d
00000060: da97 57bd ad0e 7dbc 2a98 0d3d 1477 a9bd
00000070: a015 4a3d a025 0d3d 4330 273d 3414 943d
00000080: c518 febc 92a9 1fbd ea78 6a3d 4b66 c6bd
00000090: 2410 b7bc 61c7 70bc 03b1 3abd 8fdc a83c
000000a0: 013b b8bd cf09 b5bd 9abc 89bd 994b acbd
000000b0: 3db8 b8bb cdf6 b2bd e71f 55bd 0dfe 8fbd
000000c0: b17f 443c 015a f7bb add4 48bc d72a 5e3d
000000d0: 6b4c f3bc 3f98 5d3d 3c56 7abd ad21 8abd
000000e0: 02cc 50bc d369 4bbd 0fdc ab3d 774f 313d
000000f0: a386 96bd 9271 493c 1aad 4dbd 0c39 5cbb
00000100: be89 bfbd 6035 f5bb fd19 b2bd 6a9d 54bd
00000110: 3d17 e53c 1099 4cbd de7e 1abd a199 823c
00000120: ffcc 0dbd 25af 80bd 1bba 80bc c4a5 143d
00000130: 8b6e c73c fac3 89bc 3002 4f3c 64d3 dd3b
00000140: a72a 61bd 7212 6b3d afbf 013d e6ab 1d3d
00000150: 2bfc b03d 4942 493d ebf9 683d 7364 2f3c
00000160: d0ac 5fbd 1723 873d cd57 8e3d 2569 0b3d
00000170: a176 aa3d b4d8 a7bd afe6 77bd 9e95 873d
00000180: f490 133d 0370 0b3d 3153 2c3c 0fee 58bd
00000190: e807 b1bb 2711 5c3d dc12 a03c 3467 7e3d
000001a0: 6aeb acbc bbd3 33bd b143 d8bc b186 3a3d
000001b0: 4fe4 12bd b9ae 683d 0110 30bd f67a 1abc
000001c0: aab7 93bc 027d 9fbd 1685 5bbc ba77 f83c
000001d0: cb1f 6cbd 7c81 bf3b 06ec 32bd 99e6 b0bd
000001e0: cec8 b63d 8e3d bd3c 6eb7 723d 2dc9 dabc
000001f0: f6e3 05bd c744 203d aebc 883d e627 84bd
00000200: bc9c 19bd f1a0 03bc 2e34 da3a 874d 933d
00000210: 4549 073d d335 4fbd 1433 5d3d 5909 0d3d
00000220: 2431 ab3d 727d 18bd 1b6e 453d 6ce0 623d
00000230: e289 1c3d a200 dbba 7c13 573d bd1d afbd
00000240: 75c5 be3b 259b 6b3c 6c6a c6bc 46ba 0b3e
00000250: c4a4 26bd 7b4c 973d 6f6a 8d3d dc60 e53d
00000260: 0746 dc3c 07d8 a43d 2481 eb3c c00e 363b
00000270: 02d8 5a3d cd71 bbbd 0930 953d 4262 8ebc
00000280: c353 ac3d 2da5 b8bc 3563 aebd d240 18bd
00000290: 4f6b 32bd d91b 303d 3709 903d 1f4b 32bd
000002a0: 7d69 fe3b fba0 85bc 40ae 4ebc c500 323d
000002b0: b355 94bd 2493 e4bc e81b 0bbd 7d3d 94bd
000002c0: 725e 903d cad5 0fbd da4d 0cbd b976 723d
000002d0: 191b e43c 99b6 a3bd 624f 3bbd cc41 5f3d
000002e0: a6dd af3d a54a 8fbd 8c96 c13d 109d 023b
000002f0: b795 833d 99e4 8cbc 9845 b03c 2cec 03bd
00000300: f6fd 483d 04da a73d 11f7 063d c757 fa3c
00000310: dbc0 b83d 98da 43bc 1d1a 21bd 9d51 b7bc
00000320: eaaf 893d 82b6 c2bc e8a6 c3bc d145 b8bc
00000330: df61 713d 3ae1 cf3c ef32 86bd a596 2cbd
00000340: 6445 96bd 345b 47bd e2be 22bd 8b90 bf3d
00000350: 5f0e 373d afc3 963d ee25 31bd b9c3 28bd
00000360: 4881 8b3d 4fc1 67bb 4f3c b0bd 7e6b df3c
00000370: 700b 973d 2ddd 593d 700e 0e3c d8a5 bc3c
00000380: 638e ec3a b468 583d 6d65 b1bc 2cea 9b3b
00000390: 6fdc 41bd 9b62 28bd f70c e7bc 8047 8c3d
000003a0: 5de8 9a3d 6341 2ebd ac33 b43d 7f0e 503d
000003b0: 4ef2 39bc 2f05 5b3d e3db 30bb ab4c 64bd
000003c0: 1645 a6bd f048 a73d 07b3 c23c 45c6 673d
000003d0: 36cf 9fbd 8115 abbd c837 6b3d 9853 6abd
000003e0: ba58 9bbc 5360 a6bd 01d3 36bb 0df3 843c
000003f0: 1ad9 c3bc 5f09 463d ba50 b33b cdbd da3a

layers.0.mlp.layers.2.bias f4 [128]
0.023931246 -0.06338461 -0.014440529 -0.07205018 0.081712216 0.0020370882 -0.080539 -0.05224909
-0.07246691 -0.064677596 0.06602752 -0.065815054 0.06486763 -0.07742749 0.08490739 -0.08712214
-0.07910038 0.071141 0.08188436 0.017112695 -0.07006507 0.0016308307 0.038350016 0.013324385
0.04496156 0.05345362 -0.05395608 -0.024017178 -0.059379157 -0.06718119 0.010599883 -0.00630099
-0.08560885 0.03615224 -0.05151649 -0.0052558873 -0.043551706 -0.08467319 -0.059694976 0.06897526
-0.078155495 -0.04151905 0.0020262995 0.0721924 -0.04552024 -0.024250029 0.08090723 -0.045490142
-0.0056090443 0.07177968 -0.07401699 0.036209498 -0.05921046 0.07039872 -0.0050998437 0.036077347
0.07157314 -0.07424151 0.060203332 0.008708838 0.035433665 0.011270216 -0.04473193 0.0074471463
-0.054445464 0.082717665 0.068039775 0.07633453 0.06318274 0.04141405 0.02059818 0.04063545
-0.034583874 -0.080639616 -0.08185327 0.0027480456 -0.06179018 0.0743372 -0.087902725 0.064679645
-0.056755956 0.04750499 0.07411242 -0.028529348 0.07894948 -0.0056461664 0.014442945 -0.08188809
0.05944488 -0.05683258 0.015677316 0.01985522 -0.023567796 -0.042596985 0.04991746 0.0051255478
-0.03339026 0.034846976 -0.024710182 -0.017639406 -0.037823945 -0.01732666 0.036511816 -0.045745045
0.0058921357 0.004988788 -0.039892394 0.043439824 0.0408949 0.011544277 0.06312547 -0.021350091
-0.058853645 -0.06450058 -0.03808797 0.007528771 -0.04283309 0.07682406 0.043940425 0.051555835
-0.0815756 0.06418101 -0.044285316 -0.06494186 0.00091460923 0.00023759881 0.041978236 0.01085605
00000000: 760b c43c cacf 81bd f897 6cbc 0b8f 93bd
00000010: bc58 a73d ab80 053b a2f1 a4bd 2403 56bd
00000020: 8869 94bd b075 84bd 7039 873d 0bca 86bd
00000030: 52d9 843d 4e92 9ebd ede3 ad3d 186d b2bd
00000040: 61ff a1bd 5fb2 913d fdb2 a73d ec2f 8c3c
00000050: 477e 8fbd 99c1 d53a e814 1d3d 854e 5a3c
00000060: 9d29 383d 2ff2 5a3d 0d01 5dbd acbf c4bc
00000070: 8f37 73bd 4b96 89bd 22ab 2d3c 8978 cebb
00000080: b153 afbd 5f14 143d f402 53bd 9439 acbb
00000090: 4663 32bd 2369 adbd b882 74bd e742 8d3d
000000a0: fd0f a0bd e10f 2abd aacb 043b 9cd9 933d
000000b0: 6e73 3abd ffa7 c6bc b1b2 a53d df53 3abd
000000c0: 13cc b7bb 3a01 933d 3896 97bd 6950 143d
000000d0: ab86 72bd 342d 903d 971c a7bb d7c5 133d
000000e0: f094 923d ef0b 98bd c597 763d 84af 0e3c
000000f0: e422 113d b6a6 383c d438 37bd 3107 f43b
00000100: 3502 5fbd e167 a93d 7058 8b3d 4755 9c3d
00000110: f465 813d c7a1 293d 84bd a83c 5c71 263d
00000120: d2a7 0dbd 6226 a5bd b0a2 a7bd 8e18 343b
00000130: b317 7dbd 1a3e 983d 5806 b4bd c376 843d
00000140: ef78 68bd 9894 423d 41c8 973d 61b6 e9bc
00000150: 44b0 a13d 7a03 b9bb 1aa2 6c3c f1b4 a7bd
00000160: 797c 733d 48c9 68bd b76d 803c 6aa7 a23c
00000170: 4011 c1bc 2d7a 2ebd 4076 4c3d 36f4 a73b
00000180: 3ac4 08bd b4bb 0e3d 026d cabc 8480 90bc
00000190: 48ed 1abd a4f0 8dbc 6a8d 153d 285f 3bbd
000001a0: d112 c13b fd78 a33b 3566 23bd f5ed 313d
000001b0: 6981 273d 3524 3d3c ed47 813d 63e6 aebc
000001c0: 8510 71bd e118 84bd 2202 1cbd e9b3 f63b
000001d0: c071 2fbd ef55 9d3d e0fa 333d 362c 533d
000001e0: 1c11 a7bd 5571 833d 8564 35bd 3d00 85bd
000001f0: 63c2 6f3a f223 7939 5ff1 2b3d 93dd 313c

layers.0.edge_linear.weight f4 [67, 18]
0.14760788 0.16784996 -0.03259308 -0.23480938 0.038494352 -0.112445824 -0.15349078 0.002293975
0.0622756 0.004671894 0.08717812 -0.1738134 -0.08965953 -0.13217334 0.0665667 -0.041268144
0.094333895 -0.23532715 -0.11687225 -0.12908736 0.18561535 -0.17393133 -0.09807289 -0.068018384
-0.18009046 -0.23134752 0.19094817 0.10999288 -0.18198285 0.04666436 0.19081235 -0.17581375
-0.079332806 -0.18706247 -0.15994161 -0.18810222 0.11822622 -0.015621684 0.08300496 -0.22416396
0.15143211 -0.019482438 0.1520776 -0.1797652 0.016206346 -0.108963825 -0.02964823 0.14944127
0.09746453 -0.038222857 0.1407289 -0.20830998 -0.0035348 0.089348614 0.02483834 -0.048362173
-0.16482444 -0.018716266 -0.17696594 0.13768864 -0.15567067 0.0017070087 0.03711789 -0.13940413
0.19595146 0.06381356 0.16505815 0.13271308 -0.17801005 0.006698989 -0.23542233 0.17688781
-0.24074979 -0.063595235 0.15593162 0.07138575 0.10846309 0.14436384 -0.0029843904 -0.1407826
0.09531307 -0.20881525 -0.09973897 -0.22830051 -0.14978619 -0.010938801 -0.08345904 0.09592311
0.16206433 -0.041009113 -0.12784457 -0.19067922 0.008243481 -0.20681714 -0.21980062 0.060545523
-0.118895695 -0.12151768 -0.21952191 0.02197416 0.06882364 -0.16119318 0.18453953 0.0016356717
-0.18859647 0.23165318 -0.010782681 -0.10686906 -0.119250484 0.039768953 -0.093325436 -0.11975505
0.022507254 0.081314705 0.13376027 -0.08960834 0.13130845 0.055126533 -0.22039823 -0.23332803
0.13060491 0.2024715 0.24901687 0.11402518 -0.13948837 0.0047492706 -0.08994791 0.15485731
0.11601058 0.113297805 -0.01841173 0.18687646 0.0778352 -0.0736462 0.0052852607 0.09563679
0.00431432 0.17390345 0.17535062 -0.16182593 0.15478921 0.16780327 -0.15219505 0.0169276
0.04836397 0.024918145 -0.20589906 0.07090805 0.014474438 0.2260946 0.09054292 0.025126731
0.020588037 0.15570259 0.11842101 0.14831413 -0.13021491 -0.2109497 0.22174364 0.04813555
0.13469897 -0.23035781 0.1387669 -0.017183289 -0.14017941 0.14324473 0.15833767 -0.0875403
0.19416 -0.11674809 -0.11852928 -0.056239154 -0.12921289 -0.03852414 0.062940896 -0.0971394
-0.0355656 -0.11252304 0.00020587331 0.06885487 -0.052757762 0.06159453 0.17809229 0.17673337
-0.20367692 -0.16348623 -0.21162505 0.16357404 0.1766024 -0.07761508 0.18331626 -0.18056174
0.19216245 -0.045983937 -0.2793517 0.024721656 -0.09564238 -0.038885873 0.12015777 0.017655844
-0.1754383 -0.060770616 0.10770742 0.09808746 0.15838109 0.12200851 0.2193096 -0.059435513
-0.10158655 0.04852799 -0.17574123 -0.07370355 -0.11485025 -0.0016430246 0.17820115 0.21417671
-0.14003177 -0.023513908 -0.20993823 0.03441495 0.098525025 -0.01505654 0.15673652 0.0564051
0.17478018 -0.19856066 0.085954145 0.1463464 -0.025635961 0.052490994 -0.07119666 0.039076928
-0.12120419 -0.14007887 0.052876677 -0.18442395 0.1727055 0.0075836475 -0.14159688 -0.1785189
0.07078889 -0.17135444 0.016772736 0.17764509 0.08617502 0.13855433 0.03177375 -0.070981175
0.19057973 0.17950107 0.18872468 0.0046408502 0.119245104 0.21766962 0.021132605 0.11731773
00000000: 8526 173e dce0 2b3e 5280 05bd df71 70be
00000010: 41ac 1d3d ff49 e6bd b02c 1dbe 8456 163b
00000020: b314 7f3d b016 993b 718a b23d 24fc 31be
00000030: 6a9f b7bd 7358 07be 1f54 883d c908 29bd
00000040: 2132 c13d 9af9 70be b85a efbd 7a2f 04be
00000050: f311 3e3e 0e1b 32be 70da c8bd 394d 8bbd
00000060: a269 38be 5de6 6cbe eb87 433e f243 e13d
00000070: b659 3abe 2123 3f3d 5064 433e 8508 34be
00000080: 3d79 a2bd 4e8d 3fbe bcc7 23be de9d 40be
00000090: 9720 f23d 17f2 7fbc 81fe a93d 3d8b 65be
000000a0: 0511 1b3e a299 9fbc 3bba 1b3e 5e14 38be
000000b0: 2cc3 843c 6d28 dfbd d8e0 f2bc 2207 193e
000000c0: 7c9b c73d 928f 1cbd 3d1b 103e 364f 55be
000000d0: 1aa8 67bb 68fc b63d c679 cb3c 6a17 46bd
000000e0: bdc7 28be db52 99bc 8f36 35be 40fe 0c3e
000000f0: 2268 1fbe b5bd df3a ee08 183d f5bf 0ebe
00000100: 80a7 483e afb0 823d 0105 293e f0e5 073e
00000110: 4448 36be 3183 db3b 8d12 71be 1422 353e
00000120: 1d87 76be 383e 82bd 8aac 1f3e b132 923d
00000130: e621 de3d 1dd4 133e c395 43bb 5029 10be
00000140: 8033 c33d aad3 55be f243 ccbd 9cc7 69be
00000150: 8d61 19be a838 33bc 93ec aabd 5673 c43d
00000160: 31f4 253e 2cf9 27bd b0e9 02be 6a41 43be
00000170: aa0f 073c dfc7 53be 6a13 61be 95fe 773d
00000180: 967f f3bd 43de f8bd 5aca 60be 2703 b43c
00000190: 69f3 8c3d d30f 25be eef7 3c3e 0964 d63a
000001a0: 6f1f 41be 7e36 6d3e d8a9 30bc 2ade dabd
000001b0: 9939 f4bd c5e4 223d 6821 bfbd 2342 f5bd
000001c0: 2261 b83c 5388 a63d 74f8 083e 9484 b7bd
000001d0: b975 063e 5ccc 613d 13b0 61be 8bed 6ebe
000001e0: 4bbd 053e b054 4f3e 47fe 7e3e 0986 e93d
000001f0: 0ad6 0ebe c59f 9b3b 9c36 b8bd ea92 1e3e
00000200: f496 ed3d ae08 e83d 32d4 96bc 8b5c 3f3e
00000210: 1068 9f3d d2d3 96bd fb2f ad3b 39dd c33d
00000220: 245f 8d3b bf13 323e 1d8f 333e b2b5 25be
00000230: 1081 1e3e 9fd4 2b3e 05d9 1bbe c0ab 8a3c
00000240: 4c19 463d 2321 cc3c 34d7 52be 3d38 913d
00000250: 3126 6d3c 5885 673e 916e b93d 93d6 cd3c
00000260: 3ea8 a83c 8070 1f3e b786 f23d a9df 173e
00000270: 0f57 05be 3303 58be c410 633e c829 453d
00000280: 87ee 093e ebe2 6bbe e918 0e3e f8c3 8cbc
00000290: 318b 0fbe bfae 123e 4523 223e 5448 b3bd
000002a0: e1d1 463e 9f19 efbd 7bbf f2bd 075b 66bd
000002b0: 6250 04be 7dcb 1dbd 28e7 803d 06f1 c6bd
000002c0: 3cad 11bd 7b72 e6bd b2df 5739 c803 8d3d
000002d0: 8618 58bd 8c4a 7c3d d35d 363e 98f9 343e
000002e0: af90 50be ef68 27be 3db4 58be f47f 273e
000002f0: 42d7 343e a8f4 9ebd 42b7 3b3e 2de5 38be
00000300: 3cc6 443e a759 3cbd 3007 8fbe 1285 ca3c
00000310: 27e0 c3bd cb46 1fbd 4715 f63d fda2 903c
00000320: 19a6 33be 9cea 78bd b595 dc3d 14e2 c83d
00000330: a72e 223e 99df f93d b292 603e a772 73bd
00000340: 9c0c d0bd 49c5 463d 82f5 33be e3f1 96bd
00000350: 9c36 ebbd c25a d7ba 5d7a 363e 2451 5b3e
00000360: 7d64 0fbe 3da0 c0bc 0cfa 56be b1f6 0c3d
00000370: 7dc7 c93d b5af 76bc 8a7f 203e 0909 673d
00000380: 93f9 323e 7c53 4bbe ba08 b03d d5db 153e
00000390: 8202 d2bc cc00 573d 8ecf 91bd 210f 203d
000003a0: e739 f8bd d670 0fbe 3795 583d a2d9 3cbe
000003b0: b6d9 303e 3f80 f83b c6fe 10be a9cd 36be
000003c0: c4f9 903d 8a77 2fbe fa66 893c 98e8 353e
000003d0: 877c b03d 30e1 0d3e 3125 023d 945e 91bd
000003e0: 5527 433e 21cf 373e 0b41 413e 4612 983b
000003f0: c736 f43d c9e4 5e3e 491e ad3c 4744 f03d

layers.0.edge_linear.bias f4 [67]
0.23072328 0.088990554 -0.19261582 0.11747984 0.21881753 -0.1783975 0.13380599 -0.13360147
-0.079208046 -0.08320745 0.15692593 0.1609178 -0.17839806 0.23415078 0.08526581 -0.20562737
-0.07902976 0.15428506 0.069683276 -0.052694727 -0.056047276 -0.094283566 0.016686246 -0.086011805
0.08512507 -0.058872968 0.033095732 0.071004234 0.16425322 -0.036613256 -0.025750505 0.014326821
-0.06956048 -0.21599409 0.20213434 -0.008373196 -0.12315694 -0.16434622 -0.20454815 0.060617853
0.06551085 -0.22031192 0.08905788 0.18673699 0.16310428 0.21809144 0.10053584 0.22749595
0.20785703 0.16933589 0.06887297 -0.10803474 -0.10852649 0.23144509 -0.22865576 0.035005182
-0.036271784 0.20978898 0.15592466 0.23462854 0.20813048 0.028043648 0.15784535 0.012178016
0.17493245 0.04976125 -0.087029636
00000000: b942 6c3e ae40 b63d 153d 45be 4599 f03d
00000010: b411 603e d6ad 36be 7004 093e d3ce 08be
00000020: d437 a2bd ab68 aabd 31b1 203e a3c7 243e
00000030: fbad 36be 39c5 6f3e d79f ae3d fb8f 52be
00000040: 5bda a1bd e7fc 1d3e 1bb6 8e3d 6dd6 57bd
00000050: d491 65bd be17 c1bd 98b1 883c f526 b0bd
00000060: 0d56 ae3d c824 71bd 648f 073d ab6a 913d
00000070: ff31 283e c8f7 15bd b9f2 d2bc 0bbb 6a3c
00000080: ba75 8ebd 8e2d 5dbe 4efc 4e3e bb2f 09bc
00000090: b539 fcbd 604a 28be 1275 51be 6d4a 783d
000000a0: 8d2a 863d 7399 61be fa63 b63d fb37 3f3e
000000b0: cf04 273e 5d53 5f3e bce5 cd3d b3f4 683e
000000c0: 79d8 543e 6366 2d3e 460d 8d3d 5141 ddbd
000000d0: 2343 debd f1ff 6c3e bc24 6abe 9861 0f3d
000000e0: b991 14bd ecd2 563e b7aa 1f3e 7742 703e
000000f0: 2820 553e cbbb e53c 36a2 213e 4d86 473c
00000100: 7e21 333e 74d2 4b3d 983c b2bd
